…
			Acuratetea e aceeasi, putin peste 65%, dar creste
			confidence si putin binary_accuracy:

			Evaluated on 4156 terms.
			Binary accuracy: 85.900%
			Correct confidence 90.581%
			Wrong confidence 67.054%


4) Model 4: LSTM + toate feature-urile (pana la PMI pe 30.000.000 de propozitii)

	Found 98.96% embeddings.
__________________________________________________________________________________________________
Layer (type)                    Output Shape         Param #     Connected to                     
==================================================================================================
is_stop_term_input (InputLayer) (None, 1)            0                                            
__________________________________________________________________________________________________
deg_centrality_input (InputLaye (None, 4)            0                                            
__________________________________________________________________________________________________
close_centrality_input (InputLa (None, 4)            0                                            
__________________________________________________________________________________________________
eigen_centrality_input (InputLa (None, 4)            0                                            
__________________________________________________________________________________________________
is_science_term_input (InputLay (None, 1)            0                                            
__________________________________________________________________________________________________
concretness_rating_input (Input (None, 4)            0                                            
__________________________________________________________________________________________________
pos_embeddings_input (InputLaye (None, 5)            0                                            
__________________________________________________________________________________________________
concatenate_2 (Concatenate)     (None, 13)           0           is_stop_term_input[0][0]         
                                                                 deg_centrality_input[0][0]       
                                                                 close_centrality_input[0][0]     
                                                                 eigen_centrality_input[0][0]     
__________________________________________________________________________________________________
pmi_values_input (InputLayer)   (None, 12)           0                                            
__________________________________________________________________________________________________
question_input (InputLayer)     (None, 27)           0                                            
__________________________________________________________________________________________________
answers_input (InputLayer)      (None, 28)           0                                            
__________________________________________________________________________________________________
term_input (InputLayer)         (None, 1)            0                                            
__________________________________________________________________________________________________
concatenate_3 (Concatenate)     (None, 36)           0           is_science_term_input[0][0]      
                                                                 concretness_rating_input[0][0]   
                                                                 pos_embeddings_input[0][0]       
                                                                 concatenate_2[0][0]              
                                                                 pmi_values_input[0][0]           
                                                                 is_stop_term_input[0][0]         
__________________________________________________________________________________________________
embedding_question_test (Embedd (None, 27, 50)       96650       question_input[0][0]             
__________________________________________________________________________________________________
embedding_answer_test (Embeddin (None, 28, 50)       96650       answers_input[0][0]              
__________________________________________________________________________________________________
embedding_term_test (Embedding) (None, 1, 50)        96650       term_input[0][0]                 
__________________________________________________________________________________________________
dropout_2 (Dropout)             (None, 36)           0           concatenate_3[0][0]              
__________________________________________________________________________________________________
lstm_1 (LSTM)                   (None, 35)           12040       embedding_question_test[0][0]    
__________________________________________________________________________________________________
lstm_2 (LSTM)                   (None, 25)           7600        embedding_answer_test[0][0]      
__________________________________________________________________________________________________
flatten_1 (Flatten)             (None, 50)           0           embedding_term_test[0][0]        
__________________________________________________________________________________________________
dense_2 (Dense)                 (None, 75)           2775        dropout_2[0][0]                  
__________________________________________________________________________________________________
concatenate_1 (Concatenate)     (None, 110)          0           lstm_1[0][0]                     
                                                                 lstm_2[0][0]                     
                                                                 flatten_1[0][0]                  
__________________________________________________________________________________________________
dropout_3 (Dropout)             (None, 75)           0           dense_2[0][0]                    
__________________________________________________________________________________________________
dense_1 (Dense)                 (None, 60)           6660        concatenate_1[0][0]              
__________________________________________________________________________________________________
dense_3 (Dense)                 (None, 75)           5700        dropout_3[0][0]                  
__________________________________________________________________________________________________
dropout_1 (Dropout)             (None, 60)           0           dense_1[0][0]                    
__________________________________________________________________________________________________
dropout_4 (Dropout)             (None, 75)           0           dense_3[0][0]                    
__________________________________________________________________________________________________
concatenate_4 (Concatenate)     (None, 135)          0           dropout_1[0][0]                  
                                                                 dropout_4[0][0]                  
__________________________________________________________________________________________________
dropout_5 (Dropout)             (None, 135)          0           concatenate_4[0][0]              
__________________________________________________________________________________________________
dense_4 (Dense)                 (None, 75)           10200       dropout_5[0][0]                  
__________________________________________________________________________________________________
dense_5 (Dense)                 (None, 6)            456         dense_4[0][0]                    
==================================================================================================
Total params: 335,381
Trainable params: 45,431
Non-trainable params: 289,950
__________________________________________________________________________________________________

            |  Correct class  |
            |    1   |    0   |
Predicted 1 |   982  |   295  |
…
